…
,"7/7 [==============================] - 0s 6ms/step - loss: 0.2131 - val_loss: 0.2507\n","Epoch 150/150\n","7/7 [==============================] - 0s 5ms/step - loss: 0.2248 - val_loss: 0.2551\n","Model: \"model_3\"\n","_________________________________________________________________\n"," Layer (type)                Output Shape              Param #   \n","=================================================================\n"," input_2 (InputLayer)        [(None, 128)]             0         \n","                                                                 \n"," dense_2 (Dense)             (None, 64)                8256      \n","                                                                 \n"," batch_normalization_1 (Batc  (None, 64)               256       \n"," hNormalization)                                                 \n","                                                                 \n"," dense_3 (Dense)             (None, 32)                2080      \n","                                                                 \n"," batch_normalization_2 (Batc  (None, 32)               128       \n"," hNormalization)                                                 \n","                                                                 \n"," dense_4 (Dense)             (None, 64)                2112      \n","                                                                 \n"," batch_normalization_3 (Batc  (None, 64)               256       \n"," hNormalization)                                                 \n","                                                                 \n"," dense_5 (Dense)             (None, 128)               8320      \n","                                                                 \n","=================================================================\n","Total params: 21,408\n","Trainable params: 21,088\n","Non-trainable params: 320\n","_________________________________________________________________\n","Epoch 1/150\n","7/7 [==============================] - 1s 30ms/step - loss: 0.9673 - val_loss: 
…
,"7/7 [==============================] - 0s 6ms/step - loss: 0.2751 - val_loss: 0.3173\n","Epoch 150/150\n","7/7 [==============================] - 0s 6ms/step - loss: 0.2887 - val_loss: 0.3314\n","Model: \"model_5\"\n","_________________________________________________________________\n"," Layer (type)                Output Shape              Param #   \n","=================================================================\n"," input_3 (InputLayer)        [(None, 128)]             0         \n","                                                                 \n"," dense_6 (Dense)             (None, 64)                8256      \n","                                                                 \n"," batch_normalization_4 (Batc  (None, 64)               256       \n"," hNormalization)                                                 \n","                                                                 \n"," dense_7 (Dense)             (None, 32)                2080      \n","                                                                 \n"," batch_normalization_5 (Batc  (None, 32)               128       \n"," hNormalization)                                                 \n","                                                                 \n"," dense_8 (Dense)             (None, 16)                528       \n","                                                                 \n"," batch_normalization_6 (Batc  (None, 16)               64        \n"," hNormalization)                                                 \n","                                                                 \n"," dense_9 (Dense)             (None, 32)                544       \n","                                                                 \n"," batch_normalization_7 (Batc  (None, 32)               128       \n"," hNormalization)                                                 \n","                                                                 \n"," dense_10 (Dense)            (None, 64)                2112      \n","                                                                 \n"," batch_normalization_8 (Batc  (None, 64)               256       \n"," hNormalization)                                                 \n","                                                                 \n"," dense_11 (Dense)            (None, 128)               8320      \n","                                                                 \n","=================================================================\n","Total params: 22,672\n","Trainable params: 22,256\n","Non-trainable params: 416\n","_________________________________________________________________\n","Epoch 1/150\n","7/7 [==============================] - 2s 40ms/step - loss: 0.8095 - val_loss: 
…
2eb59a6d11483da047bd98a356baa4","7fe71b3c60824086b6a725b85c456e5e"]},"id":"EQB1l9BbqjS0","outputId":"82a22c4b-cb01-4537-d8c2-5ddfa1c79a9e"},"outputs":[{"name":"stdout","output_type":"stream","text":["Model: \"model\"\n","_________________________________________________________________\n"," Layer (type)                Output Shape              Param #   \n","=================================================================\n"," input_1 (InputLayer)        [(None, 128)]             0         \n","                                                                 \n"," dense (Dense)               (None, 64)                8256      \n","                                                                 \n"," batch_normalization (BatchN  (None, 64)               256       \n"," ormalization)                                                   \n","                                                                 \n"," dense_1 (Dense)             (None, 32)                2080      \n","                                                                 \n"," batch_normalization_1 (Batc  (None, 32)               128       \n"," hNormalization)                                                 \n","                                                                 \n"," dense_2 (Dense)             (None, 16)                528       \n","                                                                 \n"," batch_normalization_2 (Batc  (None, 16)               64        \n"," hNormalization)                                                 \n","                                                                 \n"," dropout (Dropout)           (None, 16)                0         \n","                                                                 \n"," batch_normalization_3 (Batc  (None, 16)               64        \n"," hNormalization)                                                 \n","                                                                 \n"," dense_3 (Dense)             (None, 1)                 17        \n","                                                                 \n","=================================================================\n","Total params: 11,393\n","Trainable params: 11,137\n","Non-trainable params: 256\n","_________________________________________________________________\n","step 0: mean loss = 3.7444\n","Validation: loss = 2.2840, cindex = 0.5159\n","Validation: los
…
